…
Output file generated from: /home/psxmaji/CNN_Conv128_64x_5-val.py
Date and time: 03/14/19 20:31:40

Model: Conv128+3 CNN
Input images: (64, 64, 3)

Optimizer: sgd
Loss func.: mean_squared_error
Epochs: 100
Batch size: 256
Shuffle: True

Train      : 23197 examples
Validation : 9942 examples
Total: 33139 examples

Execution time: 1194.67 (0h19m54.67s)

CNN structure summary:

_________________________________________________________________
Layer (type)                 Output Shape              Param #   
=================================================================
input_1 (InputLayer)         (None, 64, 64, 3)         0         
_________________________________________________________________
conv2d_1 (Conv2D)            (None, 64, 64, 16)        448       
_________________________________________________________________
max_pooling2d_1 (MaxPooling2 (None, 32, 32, 16)        0         
_________________________________________________________________
conv2d_2 (Conv2D)            (None, 32, 32, 8)         1160      
_________________________________________________________________
max_pooling2d_2 (MaxPooling2 (None, 16, 16, 8)         0         
_________________________________________________________________
conv2d_3 (Conv2D)            (None, 16, 16, 8)         584       
_________________________________________________________________
max_pooling2d_3 (MaxPooling2 (None, 8, 8, 8)           0         
_________________________________________________________________
flatten_1 (Flatten)          (None, 512)               0         
_________________________________________________________________
dense_1 (Dense)              (None, 256)               131328    
_________________________________________________________________
dense_2 (Dense)              (None, 128)               32896     
_________________________________________________________________
dense_3 (Dense)              (None, 2)                 258       
=================================================================
Total params: 166,674
Trainable params: 166,674
Non-trainable params: 0
_________________________________________________________________
